tetris_value_final.onnx (onnx, 28345 bytes, 8 tensors)

encoder.0.bias f4 [64]
00000000: ee26 a73e aea8 1dbf ff3e 233f 7980 08bf
00000010: 9a02 d73e 5c34 b9be 7f22 183e 6c92 0fbf
00000020: 6740 06bf a572 0cbf b076 36be 6528 8ebe
00000030: 26a7 393e e993 9abe 4050 d83e b99c f33e
00000040: ca7d 0a3f f99b c1be 16e5 e5be 15be d7be
00000050: cc91 15bf 28d0 edbe d900 773e 51e4 143f
00000060: 2e70 043f 032c bd3e 2f4f 5f3e 2a88 dabe
00000070: 5843 d7be 2e47 b23e 3f8d 173f 15c9 1f3f
00000080: bb0a f23e 9188 a4be 96f0 11bf 4eb4 053f
00000090: 1b50 833e 5a5d 503e 74bc d23e 84d0 473d
000000a0: a667 f6be 931b 14bf 1df2 f7be 6040 08be
000000b0: 9b5d af3e 5e6f 0fbf 89d6 cd3d 0929 053e
000000c0: 3acb f33e 4823 1ebf cbfe b6be 20df 58bd
000000d0: e0e6 e23e 41bd 10bf adb9 0fbf b7b8 df3e
000000e0: 6917 0bbf 958b 543d 88e0 933e 9932 183f
000000f0: 70b6 a2be bbf7 a43e 5e72 e03e 4a7e c6be
0.32646888 -0.6158551 0.63768 -0.53321034 0.41994172 -0.3617276 0.14856909 -0.560828
-0.5244202 -0.54862434 -0.17818713 -0.27765194 0.18130168 -0.30190971 0.42248726 0.47580507
0.5409819 -0.3781431 -0.4490134 -0.4213721 -0.58425593 -0.46447873 0.24121417 0.58160883
0.5173367 0.3694764 0.2180755 -0.4268201 -0.42043567 0.3481993 0.591999 0.624162
0.47273812 -0.32135442 -0.5700773 0.5222825 0.25647053 0.20348111 0.41159403 0.04878284
-0.48125952 -0.57854575 -0.48426905 -0.13305807 0.34251103 -0.5602931 0.10050685 0.13003935
0.47615987 -0.61772585 -0.35741267 -0.052947164 0.4431677 -0.5653878 -0.56142694 0.43695614
-0.54332596 0.05189093 0.2888224 0.59452206 -0.31779814 0.32220253 0.43837255 -0.38768226

encoder.3.net.0.bias f4 [64]
00000000: e5da 4f3f 95bc cb3d c831 77bf 46e1 843f
00000010: c50a 9fbe cb78 1c3f 38e3 3bbc 4f58 7e3e
00000020: b0cd 6c3f ecd1 1e3e 56fd ec3e 239e 153f
00000030: 7e3f 23bd 611d 753f 5353 813e 546c 343f
00000040: 82f1 cc3e 6741 4b3e f78d 89be 7a4e 5a3f
00000050: bcf5 ad3a 83e3 133f fec8 b63f ac67 9e3d
00000060: 53d5 eabe 8a67 113f 5ce5 953e 2860 093f
00000070: 694c 063f 99b8 80bd 139b fabe d75d e2be
00000080: 6e4a 44be b144 243f 864b 0fbf 988a 0d3f
00000090: 7d05 933f d823 86be cd55 203f bd57 8bbe
000000a0: aab4 83be ea4d c9be 4987 053f 53d0 323f
000000b0: ff7b 1f3e bccf 5b3f 0d93 ff3e 1244 12bf
000000c0: 70dc 213f 68b6 25be a521 93be a9d5 a9be
000000d0: 8e8c ed3e 7067 50bd d9b6 143f fb53 a6be
000000e0: 7321 35bd a128 99be 2ab2 20bf 906a 1e3f
000000f0: 94f7 583f 4077 a2be 3f27 f43e c110 82be
0.8119338 0.099480785 -0.96560335 1.0381248 -0.31062904 0.61121815 -0.011467747 0.24838375
0.92501354 0.15509766 0.4628703 0.5844442 -0.039855473 0.95747954 0.25258884 0.70477796
0.40028006 0.19849168 -0.26866123 0.85275996 0.0013272087 0.5776903 1.4280088 0.077346176
-0.45865878 0.56798613 0.2927655 0.5366235 0.5246034 -0.06285209 -0.48946437 -0.4421222
-0.19169018 0.64167315 -0.55974615 0.552896 1.148605 -0.26199222 0.6263092 -0.27215376
-0.25723773 -0.39317256 0.52159554 0.6984913 0.15574645 0.8586385 0.49916878 -0.5713512
0.63226986 -0.16182864 -0.28736606 -0.33170822 0.46396297 -0.050879896 0.58091503 -0.32485947
-0.044221353 -0.2991381 -0.62771857 0.6188135 0.84752774 -0.31731606 0.47686192 -0.25403407

encoder.3.net.3.bias f4 [64]
00000000: a050 3cbf c1d3 40be f123 813e 83e6 cf3d
00000010: 0306 fd3e 04d9 ed3d 55a3 d23e d3eb e7bd
00000020: 9514 0dbf 1b28 b23f 7784 c23f b714 b1be
00000030: 82a9 2a3e 2709 573e 98a5 9abc 2dd0 0140
00000040: 17e6 28be 5ce1 b53e 3011 583e d567 19bd
00000050: b46c 933f 471a f6be a4b2 cb3e 2501 853f
00000060: bfb7 03bf c2f4 033f ae2e e5be b041 353e
00000070: 8520 ad3f 0ce5 95bd f00b 35be 3241 01be
00000080: ec2a 9dbf 3d62 b13e e512 14be de97 0ebf
00000090: 5279 363f 69f7 3840 c882 6140 244b 953e
000000a0: 7390 a33f d767 c9be abd8 aabe 74ed 0f3e
000000b0: f3a9 e13f 3f19 5d3e ad8d fc3e 9516 503f
000000c0: 1b15 143f eb22 323f 6f17 95be 934b e73e
000000d0: d45e 073f 5b80 2cbe 41eb 983f 5475 bc3f
000000e0: 1a7d d83e d27b e13d 1c72 c2be 1d08 b83f
000000f0: f26f ec3c d336 7a3f 49b5 0dbf cac9 cd3f
-0.73560524 -0.18830778 0.25222734 0.101513885 0.4941865 0.11613658 0.41140237 -0.11324277
-0.5510953 1.3918489 1.5196675 -0.34586117 0.16666225 0.20999585 -0.01887779 2.028331
-0.16494022 0.35523498 0.21100307 -0.037452538 1.1517549 -0.48066923 0.3978473 1.0390974
-0.5145225 0.51545346 -0.44762176 0.17700839 1.3525549 -0.07319078 -0.17680335 -0.12622526
-1.2278724 0.34645262 -0.14460333 -0.5570048 0.7127887 2.8901007 3.5236073 0.2915889
1.2778457 -0.39337036 -0.3336843 0.14055425 1.7629989 0.21591662 0.4932684 0.8128446
0.57844704 0.6958453 -0.2911944 0.45174846 0.5287907 -0.16845839 1.1946794 1.4723306
0.42282945 0.11009945 -0.37977684 1.4377476 0.028861973 0.97739905 -0.55354744 1.6077206

encoder.4.net.0.bias f4 [64]
00000000: 230a 533c 1110 21bc e709 7cbf 8119 4d3f
00000010: fd69 823f a041 cd3e 5e5a 4a3f 87e5 eb3e
00000020: 5a2c 4ebf bf4b efbe 8c24 4d3f 08cc 873f
00000030: e219 0cbf b39a d2bd 3384 1ebf c378 0540
00000040: d966 b83e 0a56 47bf f84b 9f3e 302e 2d3f
00000050: 558c 263e 1421 873f 7fb5 aebf 0c49 0ebf
00000060: 559f 64bf 6d7e fd3e dd50 2e3f 7196 1ebe
00000070: b883 7bbf 6260 653f 60f2 38bf 2b6a 32be
00000080: 45c3 553f a578 66bf df8c 01bf ba9c a03f
00000090: 83c1 eebe a6de a13d bcf0 25bf 5938 523f
000000a0: 7659 7f3f a97e ca3e 6ba4 f9be c901 6d3e
000000b0: 8ef4 01bf 4b93 4cbf 4100 703f 6666 3c3f
000000c0: c5bc 633f 0d1b 183f f4a0 373d 95c5 523e
000000d0: 20fd b63f 77d3 d03e 4d57 063f 9482 50bf
000000e0: cb92 3ebf 78f5 af3e d15c 2abf ff0b 5b3f
000000f0: 530a 5ebf bda9 963e 7693 23bd 2c43 58be
0.012880835 -0.009830491 -0.9845261 0.8011704 1.0188595 0.4008913 0.7904414 0.46073553
-0.80536425 -0.46737477 0.8013389 1.060914 -0.54726994 -0.10283413 -0.6192047 2.0854957
0.36015967 -0.7786566 0.31112647 0.676486 0.1626447 1.055697 -1.3649138 -0.5558021
-0.8930562 0.49510518 0.6809214 -0.15487076 -0.9824786 0.89600194 -0.72244835 -0.17423312
0.8350108 -0.9002784 -0.5060558 1.2547829 -0.46632013 0.07903795 -0.64820457 0.8211723
0.9974588 0.3954976 -0.48758253 0.23145212 -0.50763786 -0.7991225 0.9375039 0.7359375
0.88959914 0.59416276 0.04483123 0.20583184 1.4295998 0.40786335 0.5247696 -0.81449246
-0.7444274 0.34366965 -0.66547877 0.8556518 -0.86734504 0.29426375 -0.03993555 -0.21119374

encoder.4.net.3.bias f4 [64]
00000000: 6f8b e43e 4122 2fbe 603b 903f 8bc4 a4be
00000010: 2618 3c3f d77b 453f 9a0a f43e 94cf 32be
00000020: 73a2 6bbf 763d c6bc 1b84 0f3f a92d d63f
00000030: 7fb9 94be c4a1 8c3f 628a a5be 3cbc 26bf
00000040: cb98 153f 0e46 343f e9ef 733e c9cc 403f
00000050: 0250 483f 2e0b 8ebe b937 243f 8dbd ea3e
00000060: 743f fdbe 5d6b 183e 38e9 1a3f fd26 8d3d
00000070: ecfa b23e 7d4e 2bbf 8fc0 883f 875e 953f
00000080: 10f3 1fbd 20f2 ac3f 76d3 993e c06d 8cbf
00000090: f430 463f 5062 0440 ff02 943f cea8 cbbd
000000a0: 24a1 3ebf a599 e33e 2e2e 4bbe 2b61 523d
000000b0: cbbe 353f c857 0bbf abcc 1040 c435 3a3f
000000c0: f957 0bbf a03c 3a3f 27d4 453f da50 cb3f
000000d0: 370b 02bf 9b77 49be 963e 263f 96ec 023e
000000e0: 63d1 d83e d65b 71be 72e4 b03e 3dfa 263f
000000f0: 10d4 223f d2fb bdbe 93e4 d0be c6b9 a53e
0.4463763 -0.1710291 1.126812 -0.321812 0.7347435 0.7714209 0.47664338 -0.17461997
-0.9204475 -0.024199229 0.5606095 1.6732684 -0.29047772 1.0986867 -0.3233214 -0.6513097
0.5843627 0.70419395 0.23821987 0.7531248 0.7824708 -0.27742904 0.64147526 0.4584774
-0.49462473 0.14884706 0.60512114 0.06892202 0.34957063 -0.6691664 1.0683764 1.1669472
-0.03905016 1.3511391 0.30044144 -1.0970993 0.77418447 2.0685005 1.1563414 -0.09944306
-0.7446463 0.4445316 -0.19841835 0.051362198 0.7099425 -0.5443082 2.262492 0.7273829
-0.5443111 0.72748756 0.77276844 1.5884049 -0.5079836 -0.19674532 0.6493925 0.12785563
0.4234725 -0.23570189 0.3454929 0.65225583 0.6360483 -0.37106186 -0.40799388 0.32368296

encoder.5.net.0.bias f4 [64]
00000000: 0ae0 bc3f 4d51 4a3f ba0b 903e 0a26 46bf
00000010: 22e8 3b40 f7d1 0940 bddb 0b40 5414 2e3f
00000020: 853d 17be 77e3 813f e966 2140 9eb6 e83d
00000030: cf28 4b3f 8a10 683e 97dd 8dbe 7c6b 083f
00000040: 5852 883f 03fd 523d 7a3e f03f 1959 6f3f
00000050: d4ca 0840 48a5 1a3f 8f8c 32bf f530 bebe
00000060: 55e7 10bf f2d8 ca3e 5d6a 883f 526c 1fbe
00000070: 7468 4e3f 6beb 37bf c4f1 553f e898 843f
00000080: a077 81be 2874 2d3f b508 95be 8a44 0cbe
00000090: 3df4 053f f635 ae3f 13b9 3a3f e85b b0be
000000a0: c5e8 adbb edd5 863f c25b 8c3f 5e8d d93e
000000b0: f6f6 00bf 02d8 653f 6a8d 4cbe 80a4 343f
000000c0: 67f8 9b3f fca7 b03e 2c80 773f e165 d2be
000000d0: 9f89 ae3d 9a2a 373f f1cc a1be cfff 8e3d
000000e0: 61be d83e ab38 ea3e 557b 4abf f87e 213f
000000f0: 9a8b d33d b4f2 2c3f 7832 403f 264d 78be
1.4755871 0.79030305 0.28133947 -0.77401793 2.9360433 2.1534402 2.1852868 0.6799977
-0.14769562 1.0147542 2.5219061 0.113629565 0.79359144 0.22662559 -0.27708122 0.5328901
1.0650129 0.051510822 1.8769066 0.9349533 2.1373796 0.6040845 -0.69745725 -0.37146726
-0.56602985 0.3961864 1.065746 -0.15568665 0.8062813 -0.71843594 0.8357203 1.0359163
-0.2528658 0.67755365 -0.29108205 -0.1369802 0.52325803 1.3610218 0.7293865 -0.3444512
-0.0053072893 1.0534035 1.0965502 0.42490667 -0.5037683 0.89782727 -0.1997582 0.7056351
1.2185181 0.34503162 0.9667995 -0.41093352 0.08522343 0.7154938 -0.3160167 0.06982385
0.42332748 0.4574636 -0.7909444 0.63084364 0.10329361 0.67557836 0.7507701 -0.2424818

encoder.5.net.3.bias f4 [64]
00000000: e6c1 8c3e e210 3f3f a269 1440 0238 96bf
00000010: 180d 903f 72da a83f 38f5 df3f c4aa acbf
00000020: 9abb 093f 75f9 21bf 465f b0bf 3a4e f83c
00000030: d4e3 7bbf 2b7a aa3f 6296 7d3e 1b77 b0be
00000040: 4631 27be 61ef c23e 7dea c13f ee5e 8e3e
00000050: 5b69 223f d655 0ebf 4fd5 413e ac4b bf3f
00000060: 4226 82be 6c7d 0abf 45f5 483f f4b8 dfbe
00000070: 03bb 093f 9220 4abf 0a9a fc3d 3618 97bf
00000080: 3c99 7fbe 6d6a 63bf a084 0ebf fe45 8cbf
00000090: bd32 543f 6d0e 03bf 6056 9f3f bae8 adbf
000000a0: d211 92bf d3ea a93e 6ccd 1ac0 d3fd 973e
000000b0: b0d1 263f 91ba cf3f 8d82 ebbe c408 943f
000000c0: 0d37 2740 a844 26bf 024d 4dbe a385 093f
000000d0: a5bc f0be 73cc f83e 570a 23bf 1ebe 15be
000000e0: f759 7abe 16be f7be cf2a aabe d8e4 ae3f
000000f0: 409e 743e 2202 ba3f 6fc9 b1bf 442e 713d
0.27491683 0.74635136 2.3189473 -1.1735842 1.1253996 1.3191664 1.749671 -1.3489614
0.5380188 -0.63271266 -1.3779075 0.030310739 -0.98394513 1.3318533 0.24764398 -0.3446587
-0.1632739 0.38073257 1.5149685 0.278068 0.6344201 -0.55599725 0.18929027 1.4944968
-0.25419813 -0.5409763 0.7849925 -0.43695796 0.5380098 -0.7895595 0.12334068 -1.1804264
-0.24960798 -0.8883427 -0.5567112 -1.095886 0.8288992 -0.51193887 1.2448235 -1.3586648
-1.1411688 0.3318697 -2.418788 0.2968584 0.6516371 1.622881 -0.4599804 1.1565175
2.612735 -0.6494851 -0.20048907 0.5371954 -0.47018924 0.48593482 -0.6368765 -0.14623305
-0.24448381 -0.48387212 -0.33235785 1.3663588 0.23888493 1.4531901 -1.3889598 0.058882013

encoder.6.bias f4 [8]
00000000: 6939 02be 7b44 87bd 327c f63c 9421 cabd
00000010: eb83 68bc 7a33 1abc 40d4 1b3c 8aae 223d
-0.12717213 -0.066048585 0.030088518 -0.09869686 -0.014191608 -0.009411687 0.009511054 0.039717235
